…
>>> Currently using 6.9% of system memory 8.2 GB/125.8 GB
train size: 24098 clips
>>> Currently using 6.9% of system memory 8.2 GB/125.7 GB
>>> Currently using 6.9% of system memory 8.2 GB/125.7 GB
>>> Currently using 6.9% of system memory 8.2 GB/125.7 GB
>>> Currently using 6.9% of system memory 8.2 GB/125.7 GB
>>> Currently using 6.9% of system memory 8.2 GB/125.7 GB
>>> Currently using 6.9% of system memory 8.2 GB/125.7 GB
>>> Currently using 6.9% of system memory 8.2 GB/125.7 GB
>>> Currently using 6.9% of system memory 8.2 GB/125.7 GB
val size: 3360 clips
MoEE(
  (aggregation): ModuleDict(
    (label): NetVLAD(
      (batch_norm): BatchNorm1d(10, eps=1e-05, momentum=0.1, affine=True, track_running_stats=True)
    )
    (face): MeanToken()
    (speech): MeanToken()
  )
  (video_GU): ModuleDict(
    (clip_name): Gated_Embedding_Unit(
      (fc): Linear(in_features=1024, out_features=512, bias=True)
      (cg): Context_Gating(
        (fc): Linear(in_features=512, out_features=512, bias=True)
        (batch_norm): BatchNorm1d(1, eps=1e-05, momentum=0.1, affine=True, track_running_stats=True)
      )
    )
    (face): Gated_Embedding_Unit(
      (fc): Linear(in_features=256, out_features=512, bias=True)
      (cg): Context_Gating(
        (fc): Linear(in_features=512, out_features=512, bias=True)
        (batch_norm): BatchNorm1d(1, eps=1e-05, momentum=0.1, affine=True, track_running_stats=True)
      )
    )
    (rgb): Gated_Embedding_Unit(
      (fc): Linear(in_features=2048, out_features=512, bias=True)
      (cg): Context_Gating(
        (fc): Linear(in_features=512, out_features=512, bias=True)
        (batch_norm): BatchNorm1d(1, eps=1e-05, momentum=0.1, affine=True, track_running_stats=True)
      )
    )
    (scene): Gated_Embedding_Unit(
      (fc): Linear(in_features=2208, out_features=512, bias=True)
      (cg): Context_Gating(
        (fc): Linear(in_features=512, out_features=512, bias=True)
        (batch_norm): BatchNorm1d(1, eps=1e-05, momentum=0.1, affine=True, track_running_stats=True)
      )
    )
    (speech): Gated_Embedding_Unit(
      (fc): Linear(in_features=1024, out_features=512, bias=True)
      (cg): Context_Gating(
        (fc): Linear(in_features=512, out_features=512, bias=True)
        (batch_norm): BatchNorm1d(1, eps=1e-05, momentum=0.1, affine=True, track_running_stats=True)
      )
    )
    (video): Gated_Embedding_Unit(
      (fc): Linear(in_features=1024, out_features=512, bias=True)
      (cg): Context_Gating(
        (fc): Linear(in_features=512, out_features=512, bias=True)
        (batch_norm): BatchNorm1d(1, eps=1e-05, momentum=0.1, affine=True, track_running_stats=True)
      )
    )
    (s3d): Gated_Embedding_Unit(
      (fc): Linear(in_features=1024, out_features=512, bias=True)
      (cg): Context_Gating(
        (fc): Linear(in_features=512, out_features=512, bias=True)
        (batch_norm): BatchNorm1d(1, eps=1e-05, momentum=0.1, affine=True, track_running_stats=True)
      )
    )
  )
  (clip_GU): ModuleList(
    (0): Identity()
  )
  (text_GU): ModuleDict(
    (clip_name): Gated_Embedding_Unit(
      (fc): Linear(in_features=10240, out_features=512, bias=True)
      (cg): Context_Gating(
        (fc): Linear(in_features=512, out_features=512, bias=True)
        (batch_norm): BatchNorm1d(512, eps=1e-05, momentum=0.1, affine=True, track_running_stats=True)
      )
    )
    (description): Gated_Embedding_Unit(
      (fc): Linear(in_features=10240, out_features=512, bias=True)
      (cg): Context_Gating(
        (fc): Linear(in_features=512, out_features=512, bias=True)
        (batch_norm): BatchNorm1d(512, eps=1e-05, momentum=0.1, affine=True, track_running_stats=True)
      )
    )
    (face): Gated_Embedding_Unit(
      (fc): Linear(in_features=10240, out_features=512, bias=True)
      (cg): Context_Gating(
        (fc): Linear(in_features=512, out_features=512, bias=True)
        (batch_norm): BatchNorm1d(512, eps=1e-05, momentum=0.1, affine=True, track_running_stats=True)
      )
    )
    (rgb): Gated_Embedding_Unit(
      (fc): Linear(in_features=10240, out_features=512, bias=True)
      (cg): Context_Gating(
        (fc): Linear(in_features=512, out_features=512, bias=True)
        (batch_norm): BatchNorm1d(512, eps=1e-05, momentum=0.1, affine=True, track_running_stats=True)
      )
    )
    (scene): Gated_Embedding_Unit(
      (fc): Linear(in_features=10240, out_features=512, bias=True)
      (cg): Context_Gating(
        (fc): Linear(in_features=512, out_features=512, bias=True)
        (batch_norm): BatchNorm1d(512, eps=1e-05, momentum=0.1, affine=True, track_running_stats=True)
      )
    )
    (speech): Gated_Embedding_Unit(
      (fc): Linear(in_features=10240, out_features=512, bias=True)
      (cg): Context_Gating(
        (fc): Linear(in_features=512, out_features=512, bias=True)
        (batch_norm): BatchNorm1d(512, eps=1e-05, momentum=0.1, affine=True, track_running_stats=True)
      )
    )
    (video): Gated_Embedding_Unit(
      (fc): Linear(in_features=10240, out_features=512, bias=True)
      (cg): Context_Gating(
        (fc): Linear(in_features=512, out_features=512, bias=True)
        (batch_norm): BatchNorm1d(512, eps=1e-05, momentum=0.1, affine=True, track_running_stats=True)
      )
    )
    (s3d): Gated_Embedding_Unit(
      (fc): Linear(in_features=10240, out_features=512, bias=True)
      (cg): Context_Gating(
        (fc): Linear(in_features=512, out_features=512, bias=True)
        (batch_norm): BatchNorm1d(512, eps=1e-05, momentum=0.1, affine=True, track_running_stats=True)
      )
    )
  )
  (text_clip): ModuleList(
    (0): Identity()
  )
  (moe_fc): Linear(in_features=10240, out_features=7, bias=True)
)
Trainable parameters: 50398249
Train Epoch: 1 [0/24098 (0%)] Loss: 0.121640
Train Epoch: 1 [512/24098 (2%)] Loss: 0.121449
Train Epoch: 1 [1024/24098 (4%)] Loss: 0.121020
Train Epoch: 1 [1536/24098 (6%)] Loss: 0.121309
Train Epoch: 1 [2048/24098 (8%)] Loss: 0.121203
Train Epoch: 1 [2560/24098 (11%)] Loss: 0.121414
Train Epoch: 1 [3072/24098 (13%)] Loss: 0.121358
…
