…
>>> Currently using 7.9% of system memory 9.6 GB/124.4 GB
train size: 24098 clips
>>> Currently using 7.9% of system memory 9.6 GB/124.4 GB
>>> Currently using 7.9% of system memory 9.6 GB/124.4 GB
>>> Currently using 7.9% of system memory 9.6 GB/124.4 GB
>>> Currently using 7.9% of system memory 9.6 GB/124.4 GB
>>> Currently using 7.9% of system memory 9.6 GB/124.4 GB
>>> Currently using 7.9% of system memory 9.6 GB/124.4 GB
>>> Currently using 7.9% of system memory 9.6 GB/124.4 GB
>>> Currently using 7.9% of system memory 9.6 GB/124.4 GB
val size: 3360 clips
MoEE(
  (aggregation): ModuleDict(
    (label): NetVLAD(
      (batch_norm): BatchNorm1d(10, eps=1e-05, momentum=0.1, affine=True, track_running_stats=True)
    )
    (face): MeanToken()
    (scene): MeanToken()
    (speech): MeanToken()
  )
  (video_GU): ModuleDict(
    (clip_name): Gated_Embedding_Unit(
      (fc): Linear(in_features=1024, out_features=512, bias=True)
      (cg): Context_Gating(
        (fc): Linear(in_features=512, out_features=512, bias=True)
        (batch_norm): BatchNorm1d(3, eps=1e-05, momentum=0.1, affine=True, track_running_stats=True)
      )
    )
    (face): Gated_Embedding_Unit(
      (fc): Linear(in_features=256, out_features=512, bias=True)
      (cg): Context_Gating(
        (fc): Linear(in_features=512, out_features=512, bias=True)
        (batch_norm): BatchNorm1d(3, eps=1e-05, momentum=0.1, affine=True, track_running_stats=True)
      )
    )
    (rgb): Gated_Embedding_Unit(
      (fc): Linear(in_features=2048, out_features=512, bias=True)
      (cg): Context_Gating(
        (fc): Linear(in_features=512, out_features=512, bias=True)
        (batch_norm): BatchNorm1d(3, eps=1e-05, momentum=0.1, affine=True, track_running_stats=True)
      )
    )
    (scene): Gated_Embedding_Unit(
      (fc): Linear(in_features=2208, out_features=512, bias=True)
      (cg): Context_Gating(
        (fc): Linear(in_features=512, out_features=512, bias=True)
        (batch_norm): BatchNorm1d(3, eps=1e-05, momentum=0.1, affine=True, track_running_stats=True)
      )
    )
    (speech): Gated_Embedding_Unit(
      (fc): Linear(in_features=1024, out_features=512, bias=True)
      (cg): Context_Gating(
        (fc): Linear(in_features=512, out_features=512, bias=True)
        (batch_norm): BatchNorm1d(3, eps=1e-05, momentum=0.1, affine=True, track_running_stats=True)
      )
    )
    (video): Gated_Embedding_Unit(
      (fc): Linear(in_features=1024, out_features=512, bias=True)
      (cg): Context_Gating(
        (fc): Linear(in_features=512, out_features=512, bias=True)
        (batch_norm): BatchNorm1d(3, eps=1e-05, momentum=0.1, affine=True, track_running_stats=True)
      )
    )
    (s3d): Gated_Embedding_Unit(
      (fc): Linear(in_features=1024, out_features=512, bias=True)
      (cg): Context_Gating(
        (fc): Linear(in_features=512, out_features=512, bias=True)
        (batch_norm): BatchNorm1d(3, eps=1e-05, momentum=0.1, affine=True, track_running_stats=True)
      )
    )
  )
  (clip_GU): ModuleList(
    (0): Identity()
    (1): Identity()
    (2): Identity()
  )
  (text_GU): ModuleDict(
    (clip_name): Gated_Embedding_Unit(
      (fc): Linear(in_features=10240, out_features=512, bias=True)
      (cg): Context_Gating(
        (fc): Linear(in_features=512, out_features=512, bias=True)
        (batch_norm): BatchNorm1d(512, eps=1e-05, momentum=0.1, affine=True, track_running_stats=True)
      )
    )
    (description): Gated_Embedding_Unit(
      (fc): Linear(in_features=10240, out_features=512, bias=True)
      (cg): Context_Gating(
        (fc): Linear(in_features=512, out_features=512, bias=True)
        (batch_norm): BatchNorm1d(512, eps=1e-05, momentum=0.1, affine=True, track_running_stats=True)
      )
    )
    (face): Gated_Embedding_Unit(
      (fc): Linear(in_features=10240, out_features=512, bias=True)
      (cg): Context_Gating(
        (fc): Linear(in_features=512, out_features=512, bias=True)
        (batch_norm): BatchNorm1d(512, eps=1e-05, momentum=0.1, affine=True, track_running_stats=True)
      )
    )
    (rgb): Gated_Embedding_Unit(
      (fc): Linear(in_features=10240, out_features=512, bias=True)
      (cg): Context_Gating(
        (fc): Linear(in_features=512, out_features=512, bias=True)
        (batch_norm): BatchNorm1d(512, eps=1e-05, momentum=0.1, affine=True, track_running_stats=True)
      )
    )
    (scene): Gated_Embedding_Unit(
      (fc): Linear(in_features=10240, out_features=512, bias=True)
      (cg): Context_Gating(
        (fc): Linear(in_features=512, out_features=512, bias=True)
        (batch_norm): BatchNorm1d(512, eps=1e-05, momentum=0.1, affine=True, track_running_stats=True)
      )
    )
    (speech): Gated_Embedding_Unit(
      (fc): Linear(in_features=10240, out_features=512, bias=True)
      (cg): Context_Gating(
        (fc): Linear(in_features=512, out_features=512, bias=True)
        (batch_norm): BatchNorm1d(512, eps=1e-05, momentum=0.1, affine=True, track_running_stats=True)
      )
    )
    (video): Gated_Embedding_Unit(
      (fc): Linear(in_features=10240, out_features=512, bias=True)
      (cg): Context_Gating(
        (fc): Linear(in_features=512, out_features=512, bias=True)
        (batch_norm): BatchNorm1d(512, eps=1e-05, momentum=0.1, affine=True, track_running_stats=True)
      )
    )
    (s3d): Gated_Embedding_Unit(
      (fc): Linear(in_features=10240, out_features=512, bias=True)
      (cg): Context_Gating(
        (fc): Linear(in_features=512, out_features=512, bias=True)
        (batch_norm): BatchNorm1d(512, eps=1e-05, momentum=0.1, affine=True, track_running_stats=True)
      )
    )
  )
  (text_clip): ModuleList(
    (0): Identity()
    (1): Identity()
    (2): Identity()
  )
  (moe_fc): Linear(in_features=10240, out_features=21, bias=True)
)
Trainable parameters: 50541651
Train Epoch: 1 [0/24098 (0%)] Loss: 0.121227
Traceback (most recent call last):
  File "train.py", line 86, in <module>
    main(config)
  File "train.py", line 57, in main
    trainer.train()
  File "/home2/debashish.roy/CondensedMovies/base/base_trainer.py", line 68, in train
    result = self._train_epoch(epoch)
  File "/home2/debashish.roy/CondensedMovies/trainer/trainer.py", line 73, in _train_epoch
…
