…
loading features >>> [Total: 1.4s] (gnode080:data/features/DenseNet-161/pred_scene_25fps_256px_stride1_offset0/agg/agg_feats_mean.npy)
>>> Currently using 6.1% of system memory 7.1 GB/126.9 GB
train size: 24098 clips
>>> Currently using 6.1% of system memory 7.1 GB/126.9 GB
>>> Currently using 6.1% of system memory 7.1 GB/126.9 GB
>>> Currently using 6.1% of system memory 7.1 GB/126.9 GB
>>> Currently using 6.1% of system memory 7.1 GB/126.9 GB
>>> Currently using 6.1% of system memory 7.1 GB/126.9 GB
val size: 3360 clips
MoEE(
  (aggregation): ModuleDict(
    (label): NetVLAD(
      (batch_norm): BatchNorm1d(10, eps=1e-05, momentum=0.1, affine=True, track_running_stats=True)
    )
    (face): MeanToken()
    (scene): MeanToken()
  )
  (video_GU): ModuleDict(
    (clip_name): Gated_Embedding_Unit(
      (fc): Linear(in_features=1024, out_features=512, bias=True)
      (cg): Context_Gating(
        (fc): Linear(in_features=512, out_features=512, bias=True)
        (batch_norm): BatchNorm1d(3, eps=1e-05, momentum=0.1, affine=True, track_running_stats=True)
      )
    )
    (face): Gated_Embedding_Unit(
      (fc): Linear(in_features=256, out_features=512, bias=True)
      (cg): Context_Gating(
        (fc): Linear(in_features=512, out_features=512, bias=True)
        (batch_norm): BatchNorm1d(3, eps=1e-05, momentum=0.1, affine=True, track_running_stats=True)
      )
    )
    (rgb): Gated_Embedding_Unit(
      (fc): Linear(in_features=2048, out_features=512, bias=True)
      (cg): Context_Gating(
        (fc): Linear(in_features=512, out_features=512, bias=True)
        (batch_norm): BatchNorm1d(3, eps=1e-05, momentum=0.1, affine=True, track_running_stats=True)
      )
    )
    (scene): Gated_Embedding_Unit(
      (fc): Linear(in_features=2208, out_features=512, bias=True)
      (cg): Context_Gating(
        (fc): Linear(in_features=512, out_features=512, bias=True)
        (batch_norm): BatchNorm1d(3, eps=1e-05, momentum=0.1, affine=True, track_running_stats=True)
      )
    )
  )
  (clip_GU): ModuleList(
    (0): Identity()
    (1): Identity()
    (2): Identity()
  )
  (text_GU): ModuleDict(
    (clip_name): Gated_Embedding_Unit(
      (fc): Linear(in_features=10240, out_features=512, bias=True)
      (cg): Context_Gating(
        (fc): Linear(in_features=512, out_features=512, bias=True)
        (batch_norm): BatchNorm1d(512, eps=1e-05, momentum=0.1, affine=True, track_running_stats=True)
      )
    )
    (description): Gated_Embedding_Unit(
      (fc): Linear(in_features=10240, out_features=512, bias=True)
      (cg): Context_Gating(
        (fc): Linear(in_features=512, out_features=512, bias=True)
        (batch_norm): BatchNorm1d(512, eps=1e-05, momentum=0.1, affine=True, track_running_stats=True)
      )
    )
    (face): Gated_Embedding_Unit(
      (fc): Linear(in_features=10240, out_features=512, bias=True)
      (cg): Context_Gating(
        (fc): Linear(in_features=512, out_features=512, bias=True)
        (batch_norm): BatchNorm1d(512, eps=1e-05, momentum=0.1, affine=True, track_running_stats=True)
      )
    )
    (rgb): Gated_Embedding_Unit(
      (fc): Linear(in_features=10240, out_features=512, bias=True)
      (cg): Context_Gating(
        (fc): Linear(in_features=512, out_features=512, bias=True)
        (batch_norm): BatchNorm1d(512, eps=1e-05, momentum=0.1, affine=True, track_running_stats=True)
      )
    )
    (scene): Gated_Embedding_Unit(
      (fc): Linear(in_features=10240, out_features=512, bias=True)
      (cg): Context_Gating(
        (fc): Linear(in_features=512, out_features=512, bias=True)
        (batch_norm): BatchNorm1d(512, eps=1e-05, momentum=0.1, affine=True, track_running_stats=True)
      )
    )
  )
  (text_clip): ModuleList(
    (0): Identity()
    (1): Identity()
    (2): Identity()
  )
  (moe_fc): Linear(in_features=10240, out_features=12, bias=True)
)
Trainable parameters: 31565880
Train Epoch: 1 [0/24098 (0%)] Loss: 0.121460
Train Epoch: 1 [512/24098 (2%)] Loss: 0.121540
Train Epoch: 1 [1024/24098 (4%)] Loss: 0.121626
Train Epoch: 1 [1536/24098 (6%)] Loss: 0.121673
Train Epoch: 1 [2048/24098 (8%)] Loss: 0.121641
Train Epoch: 1 [2560/24098 (11%)] Loss: 0.121280
Train Epoch: 1 [3072/24098 (13%)] Loss: 0.122046
…
