loading features >>> [Total: 1.2s] (gnode080:data/features/BERT/bert-large-cased/clip_name/agg/agg.npy)
>>> Currently using 2.4% of system memory 2.2 GB/131.8 GB
loading features >>> [Total: 35.3s] (gnode080:data/features/BERT/bert-large-cased/description/agg/agg_word.npy)
>>> Currently using 5.6% of system memory 6.4 GB/127.5 GB
train size: 24070 clips
>>> Currently using 5.6% of system memory 6.4 GB/127.5 GB
>>> Currently using 5.6% of system memory 6.4 GB/127.5 GB
val size: 3356 clips
MoEE(
  (aggregation): ModuleDict(
    (label): NetVLAD(
      (batch_norm): BatchNorm1d(10, eps=1e-05, momentum=0.1, affine=True, track_running_stats=True)
    )
  )
  (video_GU): ModuleDict(
    (clip_name): Gated_Embedding_Unit(
      (fc): Linear(in_features=1024, out_features=512, bias=True)
      (cg): Context_Gating(
        (fc): Linear(in_features=512, out_features=512, bias=True)
        (batch_norm): BatchNorm1d(3, eps=1e-05, momentum=0.1, affine=True, track_running_stats=True)
      )
    )
  )
  (clip_GU): ModuleList(
    (0): Identity()
    (1): Identity()
    (2): Identity()
  )
  (text_GU): ModuleDict(
    (clip_name): Gated_Embedding_Unit(
      (fc): Linear(in_features=10240, out_features=512, bias=True)
      (cg): Context_Gating(
        (fc): Linear(in_features=512, out_features=512, bias=True)
        (batch_norm): BatchNorm1d(512, eps=1e-05, momentum=0.1, affine=True, track_running_stats=True)
      )
    )
    (description): Gated_Embedding_Unit(
      (fc): Linear(in_features=10240, out_features=512, bias=True)
      (cg): Context_Gating(
        (fc): Linear(in_features=512, out_features=512, bias=True)
        (batch_norm): BatchNorm1d(512, eps=1e-05, momentum=0.1, affine=True, track_running_stats=True)
      )
    )
  )
  (text_clip): ModuleList(
    (0): Identity()
    (1): Identity()
    (2): Identity()
  )
  (moe_fc): Linear(in_features=10240, out_features=3, bias=True)
)
Trainable parameters: 11852829
Train Epoch: 1 [0/24070 (0%)] Loss: 0.121611
Train Epoch: 1 [512/24070 (2%)] Loss: 0.121287
Train Epoch: 1 [1024/24070 (4%)] Loss: 0.121734
Train Epoch: 1 [1536/24070 (6%)] Loss: 0.121230
Train Epoch: 1 [2048/24070 (9%)] Loss: 0.121141
Train Epoch: 1 [2560/24070 (11%)] Loss: 0.121430
Train Epoch: 1 [3072/24070 (13%)] Loss: 0.121261
…
