…
loading features >>> [Total: 35.4s] (gnode086:data/features/BERT/bert-large-cased/description/agg/agg_word.npy)
>>> Currently using 8.4% of system memory 10.2 GB/123.7 GB
loading features >>> [Total: 17.1s] (gnode086:data/features/BERT/bert-large-cased/speech/agg/agg.npy)
>>> Currently using 9.7% of system memory 12.1 GB/121.9 GB
train size: 24086 clips
>>> Currently using 9.8% of system memory 12.1 GB/121.9 GB
>>> Currently using 9.8% of system memory 12.1 GB/121.9 GB
>>> Currently using 9.8% of system memory 12.1 GB/121.9 GB
val size: 3359 clips
MoEE(
  (aggregation): ModuleDict(
    (label): NetVLAD(
      (batch_norm): BatchNorm1d(10, eps=1e-05, momentum=0.1, affine=True, track_running_stats=True)
    )
    (speech): MeanToken()
  )
  (video_GU): ModuleDict(
    (clip_name): Gated_Embedding_Unit(
      (fc): Linear(in_features=1024, out_features=512, bias=True)
      (cg): Context_Gating(
        (fc): Linear(in_features=512, out_features=512, bias=True)
        (batch_norm): BatchNorm1d(3, eps=1e-05, momentum=0.1, affine=True, track_running_stats=True)
      )
    )
    (speech): Gated_Embedding_Unit(
      (fc): Linear(in_features=1024, out_features=512, bias=True)
      (cg): Context_Gating(
        (fc): Linear(in_features=512, out_features=512, bias=True)
        (batch_norm): BatchNorm1d(3, eps=1e-05, momentum=0.1, affine=True, track_running_stats=True)
      )
    )
  )
  (clip_GU): ModuleList(
    (0): Identity()
    (1): Identity()
    (2): Identity()
  )
  (text_GU): ModuleDict(
    (clip_name): Gated_Embedding_Unit(
      (fc): Linear(in_features=10240, out_features=512, bias=True)
      (cg): Context_Gating(
        (fc): Linear(in_features=512, out_features=512, bias=True)
        (batch_norm): BatchNorm1d(512, eps=1e-05, momentum=0.1, affine=True, track_running_stats=True)
      )
    )
    (description): Gated_Embedding_Unit(
      (fc): Linear(in_features=10240, out_features=512, bias=True)
      (cg): Context_Gating(
        (fc): Linear(in_features=512, out_features=512, bias=True)
        (batch_norm): BatchNorm1d(512, eps=1e-05, momentum=0.1, affine=True, track_running_stats=True)
      )
    )
    (speech): Gated_Embedding_Unit(
      (fc): Linear(in_features=10240, out_features=512, bias=True)
      (cg): Context_Gating(
        (fc): Linear(in_features=512, out_features=512, bias=True)
        (batch_norm): BatchNorm1d(512, eps=1e-05, momentum=0.1, affine=True, track_running_stats=True)
      )
    )
  )
  (text_clip): ModuleList(
    (0): Identity()
    (1): Identity()
    (2): Identity()
  )
  (moe_fc): Linear(in_features=10240, out_features=6, bias=True)
)
Trainable parameters: 18178086
Train Epoch: 1 [0/24086 (0%)] Loss: 0.120681
Train Epoch: 1 [512/24086 (2%)] Loss: 0.121374
Train Epoch: 1 [1024/24086 (4%)] Loss: 0.121797
Train Epoch: 1 [1536/24086 (6%)] Loss: 0.121789
Train Epoch: 1 [2048/24086 (9%)] Loss: 0.120809
Train Epoch: 1 [2560/24086 (11%)] Loss: 0.120216
Train Epoch: 1 [3072/24086 (13%)] Loss: 0.121043
…
