…
loading features >>> [Total: 3.3s] (gnode012:data/features/BERT/bert-large-cased/description/agg/agg_word.npy)
>>> Currently using 5.8% of system memory 6.8 GB/127.2 GB
loading features >>> [Total: 0.2s] (gnode012:data/features/DenseNet-161/pred_scene_25fps_256px_stride1_offset0/agg/agg_feats_mean.npy)
>>> Currently using 5.9% of system memory 6.9 GB/127.1 GB
train size: 24098 clips
>>> Currently using 5.9% of system memory 7.0 GB/127.0 GB
>>> Currently using 5.9% of system memory 7.0 GB/127.0 GB
>>> Currently using 5.9% of system memory 7.0 GB/127.0 GB
val size: 3360 clips
MoEE(
  (aggregation): ModuleDict(
    (label): NetVLAD(
      (batch_norm): BatchNorm1d(10, eps=1e-05, momentum=0.1, affine=True, track_running_stats=True)
    )
    (scene): MeanToken()
  )
  (video_GU): ModuleDict(
    (clip_name): Gated_Embedding_Unit(
      (fc): Linear(in_features=1024, out_features=512, bias=True)
      (cg): Context_Gating(
        (fc): Linear(in_features=512, out_features=512, bias=True)
        (batch_norm): BatchNorm1d(3, eps=1e-05, momentum=0.1, affine=True, track_running_stats=True)
      )
    )
    (scene): Gated_Embedding_Unit(
      (fc): Linear(in_features=2208, out_features=512, bias=True)
      (cg): Context_Gating(
        (fc): Linear(in_features=512, out_features=512, bias=True)
        (batch_norm): BatchNorm1d(3, eps=1e-05, momentum=0.1, affine=True, track_running_stats=True)
      )
    )
  )
  (clip_GU): ModuleList(
    (0): Identity()
    (1): Identity()
    (2): Identity()
  )
  (text_GU): ModuleDict(
    (clip_name): Gated_Embedding_Unit(
      (fc): Linear(in_features=10240, out_features=512, bias=True)
      (cg): Context_Gating(
        (fc): Linear(in_features=512, out_features=512, bias=True)
        (batch_norm): BatchNorm1d(512, eps=1e-05, momentum=0.1, affine=True, track_running_stats=True)
      )
    )
    (description): Gated_Embedding_Unit(
      (fc): Linear(in_features=10240, out_features=512, bias=True)
      (cg): Context_Gating(
        (fc): Linear(in_features=512, out_features=512, bias=True)
        (batch_norm): BatchNorm1d(512, eps=1e-05, momentum=0.1, affine=True, track_running_stats=True)
      )
    )
    (scene): Gated_Embedding_Unit(
      (fc): Linear(in_features=10240, out_features=512, bias=True)
      (cg): Context_Gating(
        (fc): Linear(in_features=512, out_features=512, bias=True)
        (batch_norm): BatchNorm1d(512, eps=1e-05, momentum=0.1, affine=True, track_running_stats=True)
      )
    )
  )
  (text_clip): ModuleList(
    (0): Identity()
    (1): Identity()
    (2): Identity()
  )
  (moe_fc): Linear(in_features=10240, out_features=6, bias=True)
)
Trainable parameters: 18784294
Train Epoch: 1 [0/24098 (0%)] Loss: 0.121405
Train Epoch: 1 [1408/24098 (6%)] Loss: 0.121680
Train Epoch: 1 [2816/24098 (12%)] Loss: 0.120668
Train Epoch: 1 [4224/24098 (18%)] Loss: 0.121304
Train Epoch: 1 [5632/24098 (23%)] Loss: 0.121006
Train Epoch: 1 [7040/24098 (29%)] Loss: 0.121365
Train Epoch: 1 [8448/24098 (35%)] Loss: 0.121348
…
