…
loading features >>> [Total: 0.1s] (gnode012:data/features/I3D/pred_i3d_25fps_256px_stride25_offset0_inner_stride1/agg/agg_feats_mean.npy)
>>> Currently using 6.1% of system memory 7.2 GB/126.8 GB
train size: 24098 clips
>>> Currently using 6.1% of system memory 7.2 GB/126.8 GB
>>> Currently using 6.1% of system memory 7.2 GB/126.8 GB
>>> Currently using 6.1% of system memory 7.2 GB/126.8 GB
>>> Currently using 6.1% of system memory 7.2 GB/126.8 GB
>>> Currently using 6.1% of system memory 7.2 GB/126.8 GB
>>> Currently using 6.1% of system memory 7.2 GB/126.8 GB
val size: 3360 clips
MoEE(
  (aggregation): ModuleDict(
    (label): NetVLAD(
      (batch_norm): BatchNorm1d(10, eps=1e-05, momentum=0.1, affine=True, track_running_stats=True)
    )
    (face): MeanToken()
    (scene): MeanToken()
  )
  (video_GU): ModuleDict(
    (clip_name): Gated_Embedding_Unit(
      (fc): Linear(in_features=1024, out_features=512, bias=True)
      (cg): Context_Gating(
        (fc): Linear(in_features=512, out_features=512, bias=True)
        (batch_norm): BatchNorm1d(3, eps=1e-05, momentum=0.1, affine=True, track_running_stats=True)
      )
    )
    (face): Gated_Embedding_Unit(
      (fc): Linear(in_features=256, out_features=512, bias=True)
      (cg): Context_Gating(
        (fc): Linear(in_features=512, out_features=512, bias=True)
        (batch_norm): BatchNorm1d(3, eps=1e-05, momentum=0.1, affine=True, track_running_stats=True)
      )
    )
    (rgb): Gated_Embedding_Unit(
      (fc): Linear(in_features=2048, out_features=512, bias=True)
      (cg): Context_Gating(
        (fc): Linear(in_features=512, out_features=512, bias=True)
        (batch_norm): BatchNorm1d(3, eps=1e-05, momentum=0.1, affine=True, track_running_stats=True)
      )
    )
    (scene): Gated_Embedding_Unit(
      (fc): Linear(in_features=2208, out_features=512, bias=True)
      (cg): Context_Gating(
        (fc): Linear(in_features=512, out_features=512, bias=True)
        (batch_norm): BatchNorm1d(3, eps=1e-05, momentum=0.1, affine=True, track_running_stats=True)
      )
    )
    (video): Gated_Embedding_Unit(
      (fc): Linear(in_features=1024, out_features=512, bias=True)
      (cg): Context_Gating(
        (fc): Linear(in_features=512, out_features=512, bias=True)
        (batch_norm): BatchNorm1d(3, eps=1e-05, momentum=0.1, affine=True, track_running_stats=True)
      )
    )
  )
  (clip_GU): ModuleList(
    (0): Identity()
    (1): Identity()
    (2): Identity()
  )
  (text_GU): ModuleDict(
    (clip_name): Gated_Embedding_Unit(
      (fc): Linear(in_features=10240, out_features=512, bias=True)
      (cg): Context_Gating(
        (fc): Linear(in_features=512, out_features=512, bias=True)
        (batch_norm): BatchNorm1d(512, eps=1e-05, momentum=0.1, affine=True, track_running_stats=True)
      )
    )
    (description): Gated_Embedding_Unit(
      (fc): Linear(in_features=10240, out_features=512, bias=True)
      (cg): Context_Gating(
        (fc): Linear(in_features=512, out_features=512, bias=True)
        (batch_norm): BatchNorm1d(512, eps=1e-05, momentum=0.1, affine=True, track_running_stats=True)
      )
    )
    (face): Gated_Embedding_Unit(
      (fc): Linear(in_features=10240, out_features=512, bias=True)
      (cg): Context_Gating(
        (fc): Linear(in_features=512, out_features=512, bias=True)
        (batch_norm): BatchNorm1d(512, eps=1e-05, momentum=0.1, affine=True, track_running_stats=True)
      )
    )
    (rgb): Gated_Embedding_Unit(
      (fc): Linear(in_features=10240, out_features=512, bias=True)
      (cg): Context_Gating(
        (fc): Linear(in_features=512, out_features=512, bias=True)
        (batch_norm): BatchNorm1d(512, eps=1e-05, momentum=0.1, affine=True, track_running_stats=True)
      )
    )
    (scene): Gated_Embedding_Unit(
      (fc): Linear(in_features=10240, out_features=512, bias=True)
      (cg): Context_Gating(
        (fc): Linear(in_features=512, out_features=512, bias=True)
        (batch_norm): BatchNorm1d(512, eps=1e-05, momentum=0.1, affine=True, track_running_stats=True)
      )
    )
    (video): Gated_Embedding_Unit(
      (fc): Linear(in_features=10240, out_features=512, bias=True)
      (cg): Context_Gating(
        (fc): Linear(in_features=512, out_features=512, bias=True)
        (batch_norm): BatchNorm1d(512, eps=1e-05, momentum=0.1, affine=True, track_running_stats=True)
      )
    )
  )
  (text_clip): ModuleList(
    (0): Identity()
    (1): Identity()
    (2): Identity()
  )
  (moe_fc): Linear(in_features=10240, out_features=15, bias=True)
)
Trainable parameters: 37891137
Train Epoch: 1 [0/24098 (0%)] Loss: 0.121084
Train Epoch: 1 [1408/24098 (6%)] Loss: 0.121154
Train Epoch: 1 [2816/24098 (12%)] Loss: 0.121058
Train Epoch: 1 [4224/24098 (18%)] Loss: 0.121425
Train Epoch: 1 [5632/24098 (23%)] Loss: 0.121329
Train Epoch: 1 [7040/24098 (29%)] Loss: 0.121094
Train Epoch: 1 [8448/24098 (35%)] Loss: 0.121538
…
